 CUDA-version: 11050 (11060), cuDNN: 8.3.1, GPU count: 1  
 OpenCV version: 4.2.0
 0 : compute_capability = 610, cudnn_half = 0, GPU: NVIDIA GeForce GTX 1050 
   layer   filters  size/strd(dil)      input                output
   0 conv     40       3 x 3/ 1    960 x 512 x   3 ->  960 x 512 x  40 1.062 BF
   1 conv     80       3 x 3/ 2    960 x 512 x  40 ->  480 x 256 x  80 7.078 BF
   2 conv     80       3 x 3/ 1    480 x 256 x  80 ->  480 x 256 x  80 14.156 BF
   3 conv    160       3 x 3/ 2    480 x 256 x  80 ->  240 x 128 x 160 7.078 BF
   4 conv     64       1 x 1/ 1    240 x 128 x 160 ->  240 x 128 x  64 0.629 BF
   5 route  3 		                           ->  240 x 128 x 160 
   6 conv     64       1 x 1/ 1    240 x 128 x 160 ->  240 x 128 x  64 0.629 BF
   7 conv     64       3 x 3/ 1    240 x 128 x  64 ->  240 x 128 x  64 2.265 BF
   8 conv     64       3 x 3/ 1    240 x 128 x  64 ->  240 x 128 x  64 2.265 BF
   9 conv     64       3 x 3/ 1    240 x 128 x  64 ->  240 x 128 x  64 2.265 BF
  10 conv     64       3 x 3/ 1    240 x 128 x  64 ->  240 x 128 x  64 2.265 BF
  11 conv     64       3 x 3/ 1    240 x 128 x  64 ->  240 x 128 x  64 2.265 BF
  12 conv     64       3 x 3/ 1    240 x 128 x  64 ->  240 x 128 x  64 2.265 BF
  13 route  12 10 8 6 4 	                   ->  240 x 128 x 320 
  14 conv    320       1 x 1/ 1    240 x 128 x 320 ->  240 x 128 x 320 6.291 BF
  15 max                2x 2/ 2    240 x 128 x 320 ->  120 x  64 x 320 0.010 BF
  16 conv    160       1 x 1/ 1    120 x  64 x 320 ->  120 x  64 x 160 0.786 BF
  17 route  14 		                           ->  240 x 128 x 320 
  18 conv    160       1 x 1/ 1    240 x 128 x 320 ->  240 x 128 x 160 3.146 BF
  19 conv    160       3 x 3/ 2    240 x 128 x 160 ->  120 x  64 x 160 3.539 BF
  20 route  19 16 	                           ->  120 x  64 x 320 
  21 conv    128       1 x 1/ 1    120 x  64 x 320 ->  120 x  64 x 128 0.629 BF
  22 route  20 		                           ->  120 x  64 x 320 
  23 conv    128       1 x 1/ 1    120 x  64 x 320 ->  120 x  64 x 128 0.629 BF
  24 conv    128       3 x 3/ 1    120 x  64 x 128 ->  120 x  64 x 128 2.265 BF
  25 conv    128       3 x 3/ 1    120 x  64 x 128 ->  120 x  64 x 128 2.265 BF
  26 conv    128       3 x 3/ 1    120 x  64 x 128 ->  120 x  64 x 128 2.265 BF
  27 conv    128       3 x 3/ 1    120 x  64 x 128 ->  120 x  64 x 128 2.265 BF
  28 conv    128       3 x 3/ 1    120 x  64 x 128 ->  120 x  64 x 128 2.265 BF
  29 conv    128       3 x 3/ 1    120 x  64 x 128 ->  120 x  64 x 128 2.265 BF
  30 route  29 27 25 23 21 	                   ->  120 x  64 x 640 
  31 conv    640       1 x 1/ 1    120 x  64 x 640 ->  120 x  64 x 640 6.291 BF
  32 max                2x 2/ 2    120 x  64 x 640 ->   60 x  32 x 640 0.005 BF
  33 conv    320       1 x 1/ 1     60 x  32 x 640 ->   60 x  32 x 320 0.786 BF
  34 route  31 		                           ->  120 x  64 x 640 
  35 conv    320       1 x 1/ 1    120 x  64 x 640 ->  120 x  64 x 320 3.146 BF
  36 conv    320       3 x 3/ 2    120 x  64 x 320 ->   60 x  32 x 320 3.539 BF
  37 route  36 33 	                           ->   60 x  32 x 640 
  38 conv    256       1 x 1/ 1     60 x  32 x 640 ->   60 x  32 x 256 0.629 BF
  39 route  37 		                           ->   60 x  32 x 640 
  40 conv    256       1 x 1/ 1     60 x  32 x 640 ->   60 x  32 x 256 0.629 BF
  41 conv    256       3 x 3/ 1     60 x  32 x 256 ->   60 x  32 x 256 2.265 BF
  42 conv    256       3 x 3/ 1     60 x  32 x 256 ->   60 x  32 x 256 2.265 BF
  43 conv    256       3 x 3/ 1     60 x  32 x 256 ->   60 x  32 x 256 2.265 BF
  44 conv    256       3 x 3/ 1     60 x  32 x 256 ->   60 x  32 x 256 2.265 BF
  45 conv    256       3 x 3/ 1     60 x  32 x 256 ->   60 x  32 x 256 2.265 BF
  46 conv    256       3 x 3/ 1     60 x  32 x 256 ->   60 x  32 x 256 2.265 BF
  47 route  46 44 42 40 38 	                   ->   60 x  32 x1280 
  48 conv   1280       1 x 1/ 1     60 x  32 x1280 ->   60 x  32 x1280 6.291 BF
  49 max                2x 2/ 2     60 x  32 x1280 ->   30 x  16 x1280 0.002 BF
  50 conv    640       1 x 1/ 1     30 x  16 x1280 ->   30 x  16 x 640 0.786 BF
  51 route  48 		                           ->   60 x  32 x1280 
  52 conv    640       1 x 1/ 1     60 x  32 x1280 ->   60 x  32 x 640 3.146 BF
  53 conv    640       3 x 3/ 2     60 x  32 x 640 ->   30 x  16 x 640 3.539 BF
  54 route  53 50 	                           ->   30 x  16 x1280 
  55 conv    256       1 x 1/ 1     30 x  16 x1280 ->   30 x  16 x 256 0.315 BF
  56 route  54 		                           ->   30 x  16 x1280 
  57 conv    256       1 x 1/ 1     30 x  16 x1280 ->   30 x  16 x 256 0.315 BF
  58 conv    256       3 x 3/ 1     30 x  16 x 256 ->   30 x  16 x 256 0.566 BF
  59 conv    256       3 x 3/ 1     30 x  16 x 256 ->   30 x  16 x 256 0.566 BF
  60 conv    256       3 x 3/ 1     30 x  16 x 256 ->   30 x  16 x 256 0.566 BF
  61 conv    256       3 x 3/ 1     30 x  16 x 256 ->   30 x  16 x 256 0.566 BF
  62 conv    256       3 x 3/ 1     30 x  16 x 256 ->   30 x  16 x 256 0.566 BF
  63 conv    256       3 x 3/ 1     30 x  16 x 256 ->   30 x  16 x 256 0.566 BF
  64 route  63 61 59 57 55 	                   ->   30 x  16 x1280 
  65 conv   1280       1 x 1/ 1     30 x  16 x1280 ->   30 x  16 x1280 1.573 BF
  66 conv    640       1 x 1/ 1     30 x  16 x1280 ->   30 x  16 x 640 0.786 BF
  67 route  65 		                           ->   30 x  16 x1280 
  68 conv    640       1 x 1/ 1     30 x  16 x1280 ->   30 x  16 x 640 0.786 BF
  69 conv    640       3 x 3/ 1     30 x  16 x 640 ->   30 x  16 x 640 3.539 BF
  70 conv    640       1 x 1/ 1     30 x  16 x 640 ->   30 x  16 x 640 0.393 BF
  71 max                5x 5/ 1     30 x  16 x 640 ->   30 x  16 x 640 0.008 BF
  72 route  70 		                           ->   30 x  16 x 640 
  73 max                9x 9/ 1     30 x  16 x 640 ->   30 x  16 x 640 0.025 BF
  74 route  70 		                           ->   30 x  16 x 640 
  75 max               13x13/ 1     30 x  16 x 640 ->   30 x  16 x 640 0.052 BF
  76 route  70 71 73 75 	                   ->   30 x  16 x2560 
  77 conv    640       1 x 1/ 1     30 x  16 x2560 ->   30 x  16 x 640 1.573 BF
  78 conv    640       3 x 3/ 1     30 x  16 x 640 ->   30 x  16 x 640 3.539 BF
  79 route  78 66 	                           ->   30 x  16 x1280 
  80 conv    640       1 x 1/ 1     30 x  16 x1280 ->   30 x  16 x 640 0.786 BF
  81 conv    320       1 x 1/ 1     30 x  16 x 640 ->   30 x  16 x 320 0.197 BF
  82 upsample                 2x    30 x  16 x 320 ->   60 x  32 x 320
  83 route  48 		                           ->   60 x  32 x1280 
  84 conv    320       1 x 1/ 1     60 x  32 x1280 ->   60 x  32 x 320 1.573 BF
  85 route  84 82 	                           ->   60 x  32 x 640 
  86 conv    256       1 x 1/ 1     60 x  32 x 640 ->   60 x  32 x 256 0.629 BF
  87 route  85 		                           ->   60 x  32 x 640 
  88 conv    256       1 x 1/ 1     60 x  32 x 640 ->   60 x  32 x 256 0.629 BF
  89 conv    256       3 x 3/ 1     60 x  32 x 256 ->   60 x  32 x 256 2.265 BF
  90 conv    256       3 x 3/ 1     60 x  32 x 256 ->   60 x  32 x 256 2.265 BF
  91 conv    256       3 x 3/ 1     60 x  32 x 256 ->   60 x  32 x 256 2.265 BF
  92 conv    256       3 x 3/ 1     60 x  32 x 256 ->   60 x  32 x 256 2.265 BF
  93 conv    256       3 x 3/ 1     60 x  32 x 256 ->   60 x  32 x 256 2.265 BF
  94 conv    256       3 x 3/ 1     60 x  32 x 256 ->   60 x  32 x 256 2.265 BF
  95 route  94 92 90 88 86 	                   ->   60 x  32 x1280 
  96 conv    320       1 x 1/ 1     60 x  32 x1280 ->   60 x  32 x 320 1.573 BF
  97 conv    160       1 x 1/ 1     60 x  32 x 320 ->   60 x  32 x 160 0.197 BF
  98 upsample                 2x    60 x  32 x 160 ->  120 x  64 x 160
  99 route  31 		                           ->  120 x  64 x 640 
 100 conv    160       1 x 1/ 1    120 x  64 x 640 ->  120 x  64 x 160 1.573 BF
 101 route  100 98 	                           ->  120 x  64 x 320 
 102 conv    128       1 x 1/ 1    120 x  64 x 320 ->  120 x  64 x 128 0.629 BF
 103 route  101 		                           ->  120 x  64 x 320 
 104 conv    128       1 x 1/ 1    120 x  64 x 320 ->  120 x  64 x 128 0.629 BF
 105 conv    128       3 x 3/ 1    120 x  64 x 128 ->  120 x  64 x 128 2.265 BF
 106 conv    128       3 x 3/ 1    120 x  64 x 128 ->  120 x  64 x 128 2.265 BF
 107 conv    128       3 x 3/ 1    120 x  64 x 128 ->  120 x  64 x 128 2.265 BF
 108 conv    128       3 x 3/ 1    120 x  64 x 128 ->  120 x  64 x 128 2.265 BF
 109 conv    128       3 x 3/ 1    120 x  64 x 128 ->  120 x  64 x 128 2.265 BF
 110 conv    128       3 x 3/ 1    120 x  64 x 128 ->  120 x  64 x 128 2.265 BF
 111 route  110 108 106 104 102 	                   ->  120 x  64 x 640 
 112 conv    160       1 x 1/ 1    120 x  64 x 640 ->  120 x  64 x 160 1.573 BF
 113 max                2x 2/ 2    120 x  64 x 160 ->   60 x  32 x 160 0.001 BF
 114 conv    160       1 x 1/ 1     60 x  32 x 160 ->   60 x  32 x 160 0.098 BF
 115 route  112 		                           ->  120 x  64 x 160 
 116 conv    160       1 x 1/ 1    120 x  64 x 160 ->  120 x  64 x 160 0.393 BF
 117 conv    160       3 x 3/ 2    120 x  64 x 160 ->   60 x  32 x 160 0.885 BF
 118 route  117 114 96 	                           ->   60 x  32 x 640 
 119 conv    256       1 x 1/ 1     60 x  32 x 640 ->   60 x  32 x 256 0.629 BF
 120 route  118 		                           ->   60 x  32 x 640 
 121 conv    256       1 x 1/ 1     60 x  32 x 640 ->   60 x  32 x 256 0.629 BF
 122 conv    256       3 x 3/ 1     60 x  32 x 256 ->   60 x  32 x 256 2.265 BF
 123 conv    256       3 x 3/ 1     60 x  32 x 256 ->   60 x  32 x 256 2.265 BF
 124 conv    256       3 x 3/ 1     60 x  32 x 256 ->   60 x  32 x 256 2.265 BF
 125 conv    256       3 x 3/ 1     60 x  32 x 256 ->   60 x  32 x 256 2.265 BF
 126 conv    256       3 x 3/ 1     60 x  32 x 256 ->   60 x  32 x 256 2.265 BF
 127 conv    256       3 x 3/ 1     60 x  32 x 256 ->   60 x  32 x 256 2.265 BF
 128 route  127 125 123 121 119 	                   ->   60 x  32 x1280 
 129 conv    320       1 x 1/ 1     60 x  32 x1280 ->   60 x  32 x 320 1.573 BF
 130 max                2x 2/ 2     60 x  32 x 320 ->   30 x  16 x 320 0.001 BF
 131 conv    320       1 x 1/ 1     30 x  16 x 320 ->   30 x  16 x 320 0.098 BF
 132 route  129 		                           ->   60 x  32 x 320 
 133 conv    320       1 x 1/ 1     60 x  32 x 320 ->   60 x  32 x 320 0.393 BF
 134 conv    320       3 x 3/ 2     60 x  32 x 320 ->   30 x  16 x 320 0.885 BF
 135 route  134 131 80 	                           ->   30 x  16 x1280 
 136 conv    512       1 x 1/ 1     30 x  16 x1280 ->   30 x  16 x 512 0.629 BF
 137 route  135 		                           ->   30 x  16 x1280 
 138 conv    512       1 x 1/ 1     30 x  16 x1280 ->   30 x  16 x 512 0.629 BF
 139 conv    512       3 x 3/ 1     30 x  16 x 512 ->   30 x  16 x 512 2.265 BF
 140 conv    512       3 x 3/ 1     30 x  16 x 512 ->   30 x  16 x 512 2.265 BF
 141 conv    512       3 x 3/ 1     30 x  16 x 512 ->   30 x  16 x 512 2.265 BF
 142 conv    512       3 x 3/ 1     30 x  16 x 512 ->   30 x  16 x 512 2.265 BF
 143 conv    512       3 x 3/ 1     30 x  16 x 512 ->   30 x  16 x 512 2.265 BF
 144 conv    512       3 x 3/ 1     30 x  16 x 512 ->   30 x  16 x 512 2.265 BF
 145 route  144 142 140 138 136 	                   ->   30 x  16 x2560 
 146 conv    640       1 x 1/ 1     30 x  16 x2560 ->   30 x  16 x 640 1.573 BF
 147 route  112 		                           ->  120 x  64 x 160 
 148 conv    320       3 x 3/ 1    120 x  64 x 160 ->  120 x  64 x 320 7.078 BF
 149 conv     78       1 x 1/ 1    120 x  64 x 320 ->  120 x  64 x  78 0.383 BF
 150 yolo
[yolo] params: iou loss: ciou (4), iou_norm: 0.05, obj_norm: 1.00, cls_norm: 0.50, delta_norm: 1.00, scale_x_y: 2.00
 151 route  129 		                           ->   60 x  32 x 320 
 152 conv    640       3 x 3/ 1     60 x  32 x 320 ->   60 x  32 x 640 7.078 BF
 153 conv     78       1 x 1/ 1     60 x  32 x 640 ->   60 x  32 x  78 0.192 BF
 154 yolo
[yolo] params: iou loss: ciou (4), iou_norm: 0.05, obj_norm: 1.00, cls_norm: 0.50, delta_norm: 1.00, scale_x_y: 2.00
 155 route  146 		                           ->   30 x  16 x 640 
 156 conv   1280       3 x 3/ 1     30 x  16 x 640 ->   30 x  16 x1280 7.078 BF
 157 conv     78       1 x 1/ 1     30 x  16 x1280 ->   30 x  16 x  78 0.096 BF
 158 yolo
[yolo] params: iou loss: ciou (4), iou_norm: 0.05, obj_norm: 1.00, cls_norm: 0.50, delta_norm: 1.00, scale_x_y: 2.00
Total BFLOPS 226.189 
avg_outputs = 1444262 
 Allocate additional workspace_size = 81.93 MB 
 0 : compute_capability = 610, cudnn_half = 0, GPU: NVIDIA GeForce GTX 1050 
   layer   filters  size/strd(dil)      input                output
   0 conv     40       3 x 3/ 1    960 x 512 x   3 ->  960 x 512 x  40 1.062 BF
   1 conv     80       3 x 3/ 2    960 x 512 x  40 ->  480 x 256 x  80 7.078 BF
   2 conv     80       3 x 3/ 1    480 x 256 x  80 ->  480 x 256 x  80 14.156 BF
   3 conv    160       3 x 3/ 2    480 x 256 x  80 ->  240 x 128 x 160 7.078 BF
   4 conv     64       1 x 1/ 1    240 x 128 x 160 ->  240 x 128 x  64 0.629 BF
   5 route  3 		                           ->  240 x 128 x 160 
   6 conv     64       1 x 1/ 1    240 x 128 x 160 ->  240 x 128 x  64 0.629 BF
   7 conv     64       3 x 3/ 1    240 x 128 x  64 ->  240 x 128 x  64 2.265 BF
   8 conv     64       3 x 3/ 1    240 x 128 x  64 ->  240 x 128 x  64 2.265 BF
   9 conv     64       3 x 3/ 1    240 x 128 x  64 ->  240 x 128 x  64 2.265 BF
  10 conv     64       3 x 3/ 1    240 x 128 x  64 ->  240 x 128 x  64 2.265 BF
  11 conv     64       3 x 3/ 1    240 x 128 x  64 ->  240 x 128 x  64 2.265 BF
  12 conv     64       3 x 3/ 1    240 x 128 x  64 ->  240 x 128 x  64 2.265 BF
  13 route  12 10 8 6 4 	                   ->  240 x 128 x 320 
  14 conv    320       1 x 1/ 1    240 x 128 x 320 ->  240 x 128 x 320 6.291 BF
  15 max                2x 2/ 2    240 x 128 x 320 ->  120 x  64 x 320 0.010 BF
  16 conv    160       1 x 1/ 1    120 x  64 x 320 ->  120 x  64 x 160 0.786 BF
  17 route  14 		                           ->  240 x 128 x 320 
  18 conv    160       1 x 1/ 1    240 x 128 x 320 ->  240 x 128 x 160 3.146 BF
  19 conv    160       3 x 3/ 2    240 x 128 x 160 ->  120 x  64 x 160 3.539 BF
  20 route  19 16 	                           ->  120 x  64 x 320 
  21 conv    128       1 x 1/ 1    120 x  64 x 320 ->  120 x  64 x 128 0.629 BF
  22 route  20 		                           ->  120 x  64 x 320 
  23 conv    128       1 x 1/ 1    120 x  64 x 320 ->  120 x  64 x 128 0.629 BF
  24 conv    128       3 x 3/ 1    120 x  64 x 128 ->  120 x  64 x 128 2.265 BF
  25 conv    128       3 x 3/ 1    120 x  64 x 128 ->  120 x  64 x 128 2.265 BF
  26 conv    128       3 x 3/ 1    120 x  64 x 128 ->  120 x  64 x 128 2.265 BF
  27 conv    128       3 x 3/ 1    120 x  64 x 128 ->  120 x  64 x 128 2.265 BF
  28 conv    128       3 x 3/ 1    120 x  64 x 128 ->  120 x  64 x 128 2.265 BF
  29 conv    128       3 x 3/ 1    120 x  64 x 128 ->  120 x  64 x 128 2.265 BF
  30 route  29 27 25 23 21 	                   ->  120 x  64 x 640 
  31 conv    640       1 x 1/ 1    120 x  64 x 640 ->  120 x  64 x 640 6.291 BF
  32 max                2x 2/ 2    120 x  64 x 640 ->   60 x  32 x 640 0.005 BF
  33 conv    320       1 x 1/ 1     60 x  32 x 640 ->   60 x  32 x 320 0.786 BF
  34 route  31 		                           ->  120 x  64 x 640 
  35 conv    320       1 x 1/ 1    120 x  64 x 640 ->  120 x  64 x 320 3.146 BF
  36 conv    320       3 x 3/ 2    120 x  64 x 320 ->   60 x  32 x 320 3.539 BF
  37 route  36 33 	                           ->   60 x  32 x 640 
  38 conv    256       1 x 1/ 1     60 x  32 x 640 ->   60 x  32 x 256 0.629 BF
  39 route  37 		                           ->   60 x  32 x 640 
  40 conv    256       1 x 1/ 1     60 x  32 x 640 ->   60 x  32 x 256 0.629 BF
  41 conv    256       3 x 3/ 1     60 x  32 x 256 ->   60 x  32 x 256 2.265 BF
  42 conv    256       3 x 3/ 1     60 x  32 x 256 ->   60 x  32 x 256 2.265 BF
  43 conv    256       3 x 3/ 1     60 x  32 x 256 ->   60 x  32 x 256 2.265 BF
  44 conv    256       3 x 3/ 1     60 x  32 x 256 ->   60 x  32 x 256 2.265 BF
  45 conv    256       3 x 3/ 1     60 x  32 x 256 ->   60 x  32 x 256 2.265 BF
  46 conv    256       3 x 3/ 1     60 x  32 x 256 ->   60 x  32 x 256 2.265 BF
  47 route  46 44 42 40 38 	                   ->   60 x  32 x1280 
  48 conv   1280       1 x 1/ 1     60 x  32 x1280 ->   60 x  32 x1280 6.291 BF
  49 max                2x 2/ 2     60 x  32 x1280 ->   30 x  16 x1280 0.002 BF
  50 conv    640       1 x 1/ 1     30 x  16 x1280 ->   30 x  16 x 640 0.786 BF
  51 route  48 		                           ->   60 x  32 x1280 
  52 conv    640       1 x 1/ 1     60 x  32 x1280 ->   60 x  32 x 640 3.146 BF
  53 conv    640       3 x 3/ 2     60 x  32 x 640 ->   30 x  16 x 640 3.539 BF
  54 route  53 50 	                           ->   30 x  16 x1280 
  55 conv    256       1 x 1/ 1     30 x  16 x1280 ->   30 x  16 x 256 0.315 BF
  56 route  54 		                           ->   30 x  16 x1280 
  57 conv    256       1 x 1/ 1     30 x  16 x1280 ->   30 x  16 x 256 0.315 BF
  58 conv    256       3 x 3/ 1     30 x  16 x 256 ->   30 x  16 x 256 0.566 BF
  59 conv    256       3 x 3/ 1     30 x  16 x 256 ->   30 x  16 x 256 0.566 BF
  60 conv    256       3 x 3/ 1     30 x  16 x 256 ->   30 x  16 x 256 0.566 BF
  61 conv    256       3 x 3/ 1     30 x  16 x 256 ->   30 x  16 x 256 0.566 BF
  62 conv    256       3 x 3/ 1     30 x  16 x 256 ->   30 x  16 x 256 0.566 BF
  63 conv    256       3 x 3/ 1     30 x  16 x 256 ->   30 x  16 x 256 0.566 BF
  64 route  63 61 59 57 55 	                   ->   30 x  16 x1280 
  65 conv   1280       1 x 1/ 1     30 x  16 x1280 ->   30 x  16 x1280 1.573 BF
  66 conv    640       1 x 1/ 1     30 x  16 x1280 ->   30 x  16 x 640 0.786 BF
  67 route  65 		                           ->   30 x  16 x1280 
  68 conv    640       1 x 1/ 1     30 x  16 x1280 ->   30 x  16 x 640 0.786 BF
  69 conv    640       3 x 3/ 1     30 x  16 x 640 ->   30 x  16 x 640 3.539 BF
  70 conv    640       1 x 1/ 1     30 x  16 x 640 ->   30 x  16 x 640 0.393 BF
  71 max                5x 5/ 1     30 x  16 x 640 ->   30 x  16 x 640 0.008 BF
  72 route  70 		                           ->   30 x  16 x 640 
  73 max                9x 9/ 1     30 x  16 x 640 ->   30 x  16 x 640 0.025 BF
  74 route  70 		                           ->   30 x  16 x 640 
  75 max               13x13/ 1     30 x  16 x 640 ->   30 x  16 x 640 0.052 BF
  76 route  70 71 73 75 	                   ->   30 x  16 x2560 
  77 conv    640       1 x 1/ 1     30 x  16 x2560 ->   30 x  16 x 640 1.573 BF
  78 conv    640       3 x 3/ 1     30 x  16 x 640 ->   30 x  16 x 640 3.539 BF
  79 route  78 66 	                           ->   30 x  16 x1280 
  80 conv    640       1 x 1/ 1     30 x  16 x1280 ->   30 x  16 x 640 0.786 BF
  81 conv    320       1 x 1/ 1     30 x  16 x 640 ->   30 x  16 x 320 0.197 BF
  82 upsample                 2x    30 x  16 x 320 ->   60 x  32 x 320
  83 route  48 		                           ->   60 x  32 x1280 
  84 conv    320       1 x 1/ 1     60 x  32 x1280 ->   60 x  32 x 320 1.573 BF
  85 route  84 82 	                           ->   60 x  32 x 640 
  86 conv    256       1 x 1/ 1     60 x  32 x 640 ->   60 x  32 x 256 0.629 BF
  87 route  85 		                           ->   60 x  32 x 640 
  88 conv    256       1 x 1/ 1     60 x  32 x 640 ->   60 x  32 x 256 0.629 BF
  89 conv    256       3 x 3/ 1     60 x  32 x 256 ->   60 x  32 x 256 2.265 BF
  90 conv    256       3 x 3/ 1     60 x  32 x 256 ->   60 x  32 x 256 2.265 BF
  91 conv    256       3 x 3/ 1     60 x  32 x 256 ->   60 x  32 x 256 2.265 BF
  92 conv    256       3 x 3/ 1     60 x  32 x 256 ->   60 x  32 x 256 2.265 BF
  93 conv    256       3 x 3/ 1     60 x  32 x 256 ->   60 x  32 x 256 2.265 BF
  94 conv    256       3 x 3/ 1     60 x  32 x 256 ->   60 x  32 x 256 2.265 BF
  95 route  94 92 90 88 86 	                   ->   60 x  32 x1280 
  96 conv    320       1 x 1/ 1     60 x  32 x1280 ->   60 x  32 x 320 1.573 BF
  97 conv    160       1 x 1/ 1     60 x  32 x 320 ->   60 x  32 x 160 0.197 BF
  98 upsample                 2x    60 x  32 x 160 ->  120 x  64 x 160
  99 route  31 		                           ->  120 x  64 x 640 
 100 conv    160       1 x 1/ 1    120 x  64 x 640 ->  120 x  64 x 160 1.573 BF
 101 route  100 98 	                           ->  120 x  64 x 320 
 102 conv    128       1 x 1/ 1    120 x  64 x 320 ->  120 x  64 x 128 0.629 BF
 103 route  101 		                           ->  120 x  64 x 320 
 104 conv    128       1 x 1/ 1    120 x  64 x 320 ->  120 x  64 x 128 0.629 BF
 105 conv    128       3 x 3/ 1    120 x  64 x 128 ->  120 x  64 x 128 2.265 BF
 106 conv    128       3 x 3/ 1    120 x  64 x 128 ->  120 x  64 x 128 2.265 BF
 107 conv    128       3 x 3/ 1    120 x  64 x 128 ->  120 x  64 x 128 2.265 BF
 108 conv    128       3 x 3/ 1    120 x  64 x 128 ->  120 x  64 x 128 2.265 BF
 109 conv    128       3 x 3/ 1    120 x  64 x 128 ->  120 x  64 x 128 2.265 BF
 110 conv    128       3 x 3/ 1    120 x  64 x 128 ->  120 x  64 x 128 2.265 BF
 111 route  110 108 106 104 102 	                   ->  120 x  64 x 640 
 112 conv    160       1 x 1/ 1    120 x  64 x 640 ->  120 x  64 x 160 1.573 BF
 113 max                2x 2/ 2    120 x  64 x 160 ->   60 x  32 x 160 0.001 BF
 114 conv    160       1 x 1/ 1     60 x  32 x 160 ->   60 x  32 x 160 0.098 BF
 115 route  112 		                           ->  120 x  64 x 160 
 116 conv    160       1 x 1/ 1    120 x  64 x 160 ->  120 x  64 x 160 0.393 BF
 117 conv    160       3 x 3/ 2    120 x  64 x 160 ->   60 x  32 x 160 0.885 BF
 118 route  117 114 96 	                           ->   60 x  32 x 640 
 119 conv    256       1 x 1/ 1     60 x  32 x 640 ->   60 x  32 x 256 0.629 BF
 120 route  118 		                           ->   60 x  32 x 640 
 121 conv    256       1 x 1/ 1     60 x  32 x 640 ->   60 x  32 x 256 0.629 BF
 122 conv    256       3 x 3/ 1     60 x  32 x 256 ->   60 x  32 x 256 2.265 BF
 123 conv    256       3 x 3/ 1     60 x  32 x 256 ->   60 x  32 x 256 2.265 BF
 124 conv    256       3 x 3/ 1     60 x  32 x 256 ->   60 x  32 x 256 2.265 BF
 125  Try to set subdivisions=64 in your cfg-file. 
Darknet error location: ./src/dark_cuda.c, check_error, line #69
CUDA Error: out of memory: No such file or directory
